…
  layer_dense(units = 64, activation = "relu") %>%
  layer_dense(units = length(names(image_url_json)), activation = "softmax")
```

This is a simple setup compared to some of the other architectures commonly cited in this area. For example, our convolutional base (the part that extracts the image features) has the following setup.
```{r}
# ____________________________________________________________________________
# Layer (type)                      Output Shape                  Param #
# ============================================================================
# conv2d_1 (Conv2D)                 (None, 148, 148, 8)           224
# ____________________________________________________________________________
# max_pooling2d_1 (MaxPooling2D)    (None, 74, 74, 8)             0
# ____________________________________________________________________________
# conv2d_2 (Conv2D)                 (None, 72, 72, 16)            1168
# ____________________________________________________________________________
# max_pooling2d_2 (MaxPooling2D)    (None, 36, 36, 16)            0
# ____________________________________________________________________________
# conv2d_3 (Conv2D)                 (None, 34, 34, 32)            4640
# ____________________________________________________________________________
# max_pooling2d_3 (MaxPooling2D)    (None, 17, 17, 32)            0
```

Compare this to the [VGG19](https://gist.github.com/baraldilorenzo/8d096f48a1be4a2d660d) - a deep CNN for large-scale image classification. 

```{r}
# ____________________________________________________________________________
# Layer (type)                      Output Shape                  Param #
# ============================================================================
# input_4 (InputLayer)              (None, 150, 150, 3)           0
# ____________________________________________________________________________
# block1_conv1 (Conv2D)             (None, 150, 150, 64)          1792
# ____________________________________________________________________________
# block1_conv2 (Conv2D)             (None, 150, 150, 64)          36928
# ____________________________________________________________________________
# block1_pool (MaxPooling2D)        (None, 75, 75, 64)            0
# ____________________________________________________________________________
# block2_conv1 (Conv2D)             (None, 75, 75, 128)           73856
# ____________________________________________________________________________
# block2_conv2 (Conv2D)             (None, 75, 75, 128)           147584
# ____________________________________________________________________________
# block2_pool (MaxPooling2D)        (None, 37, 37, 128)           0
# ____________________________________________________________________________
# block3_conv1 (Conv2D)             (None, 37, 37, 256)           295168
# ____________________________________________________________________________
# block3_conv2 (Conv2D)             (None, 37, 37, 256)           590080
# ____________________________________________________________________________
# block3_conv3 (Conv2D)             (None, 37, 37, 256)           590080
# ____________________________________________________________________________
# block3_conv4 (Conv2D)             (None, 37, 37, 256)           590080
# ____________________________________________________________________________
# block3_pool (MaxPooling2D)        (None, 18, 18, 256)           0
# ____________________________________________________________________________
# block4_conv1 (Conv2D)             (None, 18, 18, 512)           1180160
# ____________________________________________________________________________
# block4_conv2 (Conv2D)             (None, 18, 18, 512)           2359808
# ____________________________________________________________________________
# block4_conv3 (Conv2D)             (None, 18, 18, 512)           2359808
# ____________________________________________________________________________
# block4_conv4 (Conv2D)             (None, 18, 18, 512)           2359808
# ____________________________________________________________________________
# block4_pool (MaxPooling2D)        (None, 9, 9, 512)             0
# ____________________________________________________________________________
# block5_conv1 (Conv2D)             (None, 9, 9, 512)             2359808
# ____________________________________________________________________________
# block5_conv2 (Conv2D)             (None, 9, 9, 512)             2359808
# ____________________________________________________________________________
# block5_conv3 (Conv2D)             (None, 9, 9, 512)             2359808
# ____________________________________________________________________________
# block5_conv4 (Conv2D)             (None, 9, 9, 512)             2359808
# ____________________________________________________________________________
# block5_pool (MaxPooling2D)        (None, 4, 4, 512)             0
```

The goal is for the model to run in under 30 minutes without the need of a Graphical Processing Unit (GPU). It would take a long time to train with a CPU if we attempted to implement a structure of this complexity. Adding more convolutions (`layer_conv_2d`) might improve model performance, but it would also greatly increase runtime. This tutorial was run on a CPU, which greatly limits the complexity of the classification model. Indeed, a GPU is crucial for any large-scale image classification problems. 
…
